best_model_weights.pth (torch, 8537 bytes, 5 tensors)

fc1.weight f4 [32, 24]
00000000: 03fe 433e 9634 213f 4426 fcbd e73a e53c
00000010: 02a7 443e c05f 3bbc dcfb d13d 74d8 98bd
00000020: 5401 4abc 9a4e c3bd 6427 02be a21c 823d
00000030: 63d2 603d 6b6f b23d dbf9 f7bc f210 10bd
00000040: 1b45 13be 7414 5cbd 51bf b73e 089c a23d
00000050: 6cb8 58be 57b9 263f 688c 613d 1c68 debe
00000060: 5a13 afbe 839a 2d3d f46e d33b 308a 163e
00000070: 29ac efbe c83d ed3d b0b2 a339 b8fd 143d
00000080: b349 8dbd 9524 68be 224c 0e3e 3e77 123b
00000090: 81e5 e4bd 4b5a 733d fe67 163a 530e 403e
000000a0: 1993 6abd 47b9 02be 12a6 53be e9f9 753e
000000b0: 8dbb 123d 8b77 993e ba28 d13d 38ab e53a
000000c0: 056c c1be 8eb0 c43e 754f bd3d fdf4 4d3e
000000d0: 1980 bdbe d500 e3bd ac6a cd3d f6eb 24be
000000e0: 8bef c73d 0f1a d93d 079c 9fbc 4932 08be
000000f0: 156d 5cbe 4f39 0a3e 1ceb fc3b e14a ecbe
00000100: 7f36 25bd c412 25be 0354 65be c749 39be
00000110: d7a2 893e 4df5 ac3e d421 abbd f764 c7be
00000120: c745 aa3e 50ed 9e3e 703a d53c a7a0 dc3e
00000130: 7438 75be b8ee ab3d 3f8c 0bbe 853b 45be
00000140: f67e 853c 047f 1d3e c702 913e 7989 883e
00000150: f547 c23d df6a 91be 8575 2ebd 8aae 13be
00000160: c6e0 213e 243f 4ebe 831a f4bd d876 40bd
00000170: 4fec 603e 5710 183d b0d4 263e 6fdf 0cbe
00000180: f788 61be cd02 433e e921 3dbe edd5 15bd
00000190: b254 d1bd 246b f13d 706b ae3c 3e7b 34be
000001a0: 6739 9ebd 0738 573e b28e 8ebe 0d8a 3bbe
000001b0: 44ba a8bc c4c9 e0bd f99d 093c 637e 72bd
000001c0: dc3c 5abd b704 19bd f22c bebd 111f 363e
000001d0: 4c90 863e d6ff 9e3e f0ab 06bd b13b 403d
000001e0: ee22 94be d1a8 0abd 1d65 063e 1dcb 993e
000001f0: 08e9 a2be 94e0 15be 80bf 3f3d 286f 4d3e
00000200: e3cb 0b3e 1cc7 3bbd 43c3 5f3b 1a96 633e
00000210: 134b 7a3e d2db 7cbe 0cb4 c23d 9b9b 4e3d
00000220: 67fa f63b 534f c63b cfc1 61be bfdd 833d
00000230: d289 2a3e cd6f 973e d6f4 05bd bf1f 0a3e
00000240: 8432 b7be dd81 2e3e cf29 a13d 7f6e 99bd
00000250: 640f 02be 5c7f 4bbe 84af 54bd 6ccc f73d
00000260: ec33 d0bc 972b 26bd 1f31 133e 30c0 bd3d
00000270: 86b1 aebc b16c 88be f75e a2bd 8ec3 39be
00000280: 022d adbd 6823 b63c 9be0 65be fd3c bebd
00000290: 073d 993e 8d1c c63d df82 9a3e 8cd1 8ebe
000002a0: 7da2 793d d2b7 c8ba 65e2 963d cbf8 ed3d
000002b0: 2626 eabd 0077 46bc c2c7 1abe 2ea9 283e
000002c0: 3974 433e 0d7d 91bd 420d 413e a651 893e
000002d0: c8a3 203e 141f 143d 6869 5a3e 946d 18bd
000002e0: bdaf 9dbd e85e d6bd 7080 49bd 30fc 24be
000002f0: e308 843e b3c0 703d e7f9 433d 38f8 5bbe
00000300: 9a7a 413e b5f3 a83e 058b d43d ded6 cd3e
00000310: d36a 48be fca1 233e a801 e33d 3099 bebc
00000320: 4de6 ef3d 1dbb 21be 7e7e 553c b672 453e
00000330: c1ff 0b3e 26c6 3ebd b4cd 02be ebac 98bc
00000340: eeeb d13d 8af1 29be 5736 7ebe ad58 1d3e
00000350: 17ec b83d 83e7 b83d 4ea4 ae3e 93ba 2ebe
00000360: db49 4c3c 2da1 e7bd 02e1 82be 207b 97be
00000370: fcfd 873d d45d f93d 5087 f23c a414 21be
00000380: dd35 28be e4bb 7e3d 8fc9 bbbe add0 f6bd
00000390: ab2e 2f3e 9d46 11be c4ed 10be 432b 123d
000003a0: 3340 f9bd ac9b c7bd cadb 3fbd 4ce5 1c3e
000003b0: 3f00 94be 82d6 cdbd 0228 313e 7e89 b1bc
000003c0: 2298 0cbe aab8 b53e 40df 17bd 1d28 ac3e
000003d0: 6a1c 54bf a02f 8c3b 6460 9c3d 785f 053d
000003e0: 34f1 373d 7df6 633e f61f 36be 6584 313d
000003f0: 7f16 99bd 5971 07bf ec00 063d 3bd6 923d
0.19139867 0.62970865 -0.12311986 0.027982188 0.19204333 -0.011436403 0.102531165 -0.0746316
-0.012329418 -0.095364764 -0.12710339 0.063531175 0.05488814 0.087126575 -0.030270508 -0.03517241
-0.1438183 -0.053730443 0.3588815 0.07939917 -0.21164101 0.65126556 0.055065542 -0.43438804
-0.34194452 0.042383682 0.0064524356 0.14701152 -0.46811035 0.115840495 0.00031222915 0.036374778
-0.06898823 -0.22670205 0.1389623 0.0022348906 -0.11176587 0.059412282 0.0005737542 0.18755464
-0.05726919 -0.1276599 -0.2066882 0.24021114 0.035823394 0.29974017 0.10212846 0.0017522341
-0.37777725 0.3841595 0.09243671 0.20112987 -0.37011793 -0.11084143 0.10030112 -0.16105637
0.09762486 0.106006734 -0.01948358 -0.13300432 -0.21525986 0.13498424 0.007718457 -0.46150878
-0.040335175 -0.1612044 -0.22395329 -0.1809455 0.2688205 0.337809 -0.083560616 -0.38944218
0.3325636 0.3104043 0.026028842 0.43091318 -0.23947316 0.08395141 -0.13627718 -0.19260986
0.016295891 0.15380484 0.2832243 0.26667383 0.09486381 -0.2840185 -0.042592544 -0.1442205
0.158084 -0.20141274 -0.11919119 -0.04698834 0.21965145 0.037124958 0.16292071 -0.13757108
-0.22024904 0.19044037 -0.18469967 -0.03658097 -0.102212325 0.117880136 0.021291465 -0.17625138
-0.077257924 0.21017466 -0.27843243 -0.18314381 -0.02059663 -0.10975984 0.00839948 -0.059202563
-0.053280696 -0.037358012 -0.092859164 0.17785288 0.26281965 0.31054562 -0.032878816 0.046931926
-0.289329 -0.033852402 0.13124509 0.30037776 -0.31818414 -0.14636451 0.046813488 0.20061934
0.13651995 -0.045844182 0.0034143485 0.22225228 0.24442701 -0.2469323 0.095069975 0.050441366
0.0075371745 0.0060519367 -0.22046588 0.06438779 0.16654137 0.29577485 -0.032704197 0.13488673
-0.35780728 0.17041726 0.078693025 -0.074917786 -0.12701184 -0.19872802 -0.051925197 0.12099537
-0.025415383 -0.040568914 0.14374207 0.092651725 -0.021324884 -0.26645425 -0.07928269 -0.18141004
-0.0845585 0.02223368 -0.22448961 -0.09288976 0.29929373 0.096734144 0.30177972 -0.27894247
0.060945977 -0.0015313572 0.073674 0.11619719 -0.114330575 -0.012113333 -0.15115264 0.16470787
0.19087304 -0.0710393 0.18852714 0.26820105 0.15687478 0.03616245 0.21329272 -0.037213877
-0.07699535 -0.10467321 -0.049194753 -0.16111827 0.2578803 0.058777522 0.047845747 -0.21481407
0.18894425 0.32998434 0.10378078 0.40202993 -0.19572 0.15979761 0.110843 -0.023266405
0.11713848 -0.15794034 0.013030646 0.1928204 0.13671781 -0.046575688 -0.12773782 -0.018637141
0.10250078 -0.16596046 -0.24825417 0.15365858 0.090294056 0.09028532 0.3410973 -0.1706336
0.01246878 -0.11310039 -0.25562292 -0.29586124 0.066402406 0.121760994 0.029605538 -0.1573053
-0.16426797 0.062190905 -0.36677215 -0.120515205 0.17107646 -0.14187093 -0.141532 0.03568579
-0.12170448 -0.09746489 -0.046840467 0.15321845 -0.28906438 -0.1005068 0.17300418 -0.021672007
-0.13729909 0.3549245 -0.037078142 0.33624354 -0.82855856 0.0042781383 0.076355726 0.03256175
0.044907764 0.22261997 -0.1778563 0.043339152 -0.07474994 -0.5290733 0.032715723 0.071697675

fc1.bias f4 [32]
00000000: 0291 213e a821 1e3e d248 92bc 4d0d 57bd
00000010: 83b1 083d dc74 38bd e42f e4ba fb86 573e
00000020: 1a92 ffbd 07fb d83c c539 79bc 35df 823e
00000030: e415 3cbb 174a 383e 0c59 02be f105 b5bd
00000040: 0b2e 413e 83af f73d adba 2a3e f8ca 113e
00000050: a07c 3d3e 5ea6 873e c8a3 91bd 0ce7 fb3d
00000060: b2a6 733e 033a 65bc 5d9e 0e3e bf86 d03d
00000070: 5826 29be 6e85 2f3e 99e7 17ba cc3b f2bd
0.15777972 0.15442526 -0.017856989 -0.05250292 0.033372413 -0.04503332 -0.0017409292 0.21047585
-0.124790385 0.026486887 -0.015211527 0.25560918 -0.0028699571 0.17997013 -0.12729281 -0.08839024
0.1886522 0.12094023 0.16672774 0.14237583 0.18504572 0.26494116 -0.07111317 0.12299928
0.23794058 -0.013990882 0.13927598 0.10181951 -0.16518533 0.17140743 -0.00057947036 -0.118278116

fc2.weight f4 [16, 32]
00000000: 44aa 133c cfb2 aa3d 79dc 9ebd 2071 a6bc
00000010: c7de cebc 8731 883d 830b 13be 0a9f cc3b
00000020: 94d7 223d e7f6 08be edc8 09bc 5a3a 49be
00000030: 6d41 47be 6c88 6abd ada1 32bd 0aab 1a3e
00000040: d18b 09be f38e 82bd 9df2 0dbe e276 8abd
00000050: c699 863d 71d1 3dbd e723 2bbd 3289 0c3e
00000060: 64e2 cdbd b6a3 14be 42bc 23bc 6723 05bd
00000070: 2754 9f3d 060d 3f3c ab61 44be 196c f9bd
00000080: 264f 98be e23b 813e 9a41 623e 8d23 ae3e
00000090: 31b9 083e e40f 6a3e 9dec b03d 393f 7abd
000000a0: bea5 293e 7954 723e 6191 473f 602b 743e
000000b0: 752e 1c3c 36af a83e 2ba7 18bf b259 b53e
000000c0: f5b4 6c3e a9c2 e1bc 9df9 573e 656d 8e3e
000000d0: bc00 643e f29f 8b3d c57e 093e 6306 473e
000000e0: dfbb 76bd 1db0 5d3e 4903 df3d 841a c13d
000000f0: a07d 243f 77a2 7a3d 6166 303e 5c03 073f
00000100: 264c 8abe 31f1 573e 9fdc c53e 5fda 893e
00000110: f505 2e3e a27d d73d a312 c73d c912 503e
00000120: b347 dc3d 29b9 a33e 3d98 e83e 9fba ac3d
00000130: fdca 823d a026 8d3e dd88 a1be 5b60 3b3d
00000140: 818e a43d 9dad 383e f6c6 143e d7b4 823e
00000150: fcf6 783e bf70 e2bc 5e1e 3f3e f923 bb3c
00000160: 2603 3e3e aa8d b13e 44be 073e d342 153d
00000170: 8c94 9f3e 9db9 493e 67b7 693e c9e8 403e
00000180: 2444 21be c174 563e 9804 1b3e eb03 b6ba
00000190: c61d 23bd 7e83 ab3d 0271 7e3e 91b7 88bd
000001a0: 19c8 863e 40bf ab3e cbff df3e a89b fd3d
000001b0: 6c7c 9b3e 32bf 993e da01 b9be 2bf1 ac3d
000001c0: 7917 a23e 0647 9a3d 514f 3b3e dcc3 ad3d
000001d0: 5455 063e 8eab 7b3e 4968 013d 64ac 983d
000001e0: fef8 23bd b94e 6f3e 1820 363d 1ecf 4d3e
000001f0: c2d2 2d3e 23b8 5c3e c515 853d b745 9f3e
00000200: 7732 febe 9861 79bc 3e1f 603d 7843 a93e
00000210: c8be 3ebd c5f4 3dbb c4df 7c3e e175 e63d
00000220: 0ffb c53e 0a13 b73e 1710 403f e551 9a3e
00000230: 8118 443e 9f70 9c3e a63e b5be 4f8f 7e3e
00000240: 3461 613e 9b68 363d 7050 9a3e 4fb0 c83d
00000250: b680 293d 47c9 803c 487c 77bd e16e a23d
00000260: 3975 e33d 91eb f43e fbc7 1e3d 0440 2d3e
00000270: 8084 063f 26fa 0c3e ad97 173e 07a7 033f
00000280: a2b5 efbd 4782 9bbd 910c 2abe dff9 e13d
00000290: 7976 95be 323e 8d3d 4504 c73d 3d7d b43d
000002a0: 2ac9 213d d44c a03e 5395 77be 1691 633c
000002b0: 46d3 dcbd ac4f 87be f529 513f 852b aa3d
000002c0: c303 5c3e c167 9c3d 8059 f0bd 98c7 bcbe
000002d0: d3e5 8cbd dd43 53bd 0145 f13d df99 a0bd
000002e0: 11ac 03be 76e0 0abe 461e a7bd a284 ecbd
000002f0: 0991 1b3e 8951 36be 1c75 13be 4604 363e
00000300: fb46 2fbe d8a2 7f3d ce3e 193d 8585 9dbc
00000310: 6be0 923c 91db 7fbc d9ca 25be 4eb4 7abd
00000320: cf04 34bb dc2c d1bd 43b1 ea3d f7ba f9bd
00000330: a540 7a3d 6d0b 90bd beb9 3c3e 2f56 15be
00000340: 523b a43d 91ac 12be 8909 4cbe 89aa a5bd
00000350: 4282 8bbc 3bb3 003e de29 37be 9002 6f3b
00000360: eb08 07be 5e03 cc3d 1f41 50bd 7abe a3bc
00000370: ed2b b5bb c992 0b3e f76c 98bd d3a0 4d3d
00000380: 3157 adbe 8a68 7b3e 827c 453d a67f f13c
00000390: 93e6 3f3e 2094 263e 03cc 963e 3a40 1e3e
000003a0: 2fc8 cd3e d988 2d3e 1faa 3b3f dc91 4e3e
000003b0: 1a80 a33e ad9f 203e c7d9 d7be ddb4 783d
000003c0: 7af8 453e de36 3a3e 9204 efba 39c9 043d
000003d0: 15a8 6e3e c9bb 1c3e 1286 8a3d bfaf 31bd
000003e0: c38a 493e 5bd7 de3e f327 af3d 767b 373e
000003f0: 90bb c63e 9f19 553d 36b3 f93b bd95 e93e
0.009012762 0.08334886 -0.077568956 -0.020317614 -0.025252713 0.066500716 -0.1435986 0.006244545
0.039756373 -0.13375436 -0.008409721 -0.19651166 -0.19458552 -0.05725901 -0.043611217 0.15104309
-0.13432242 -0.06374922 -0.13862081 -0.06760956 0.06572299 -0.046342317 -0.041782286 0.13724211
-0.10052946 -0.14515576 -0.009993615 -0.032504465 0.07779723 0.01166082 -0.19177882 -0.12178821
-0.29747885 0.25241 0.22095338 0.34011498 0.13351895 0.22857624 0.086388804 -0.06109545
0.16567132 0.23665036 0.77956206 0.23844671 0.009532561 0.32946175 -0.5963008 0.35419995
0.23115905 -0.027558642 0.21091314 0.27817836 0.22265905 0.068176165 0.13427265 0.1943603
-0.06023776 0.21649213 0.108892985 0.094288856 0.6425419 0.061190095 0.17226554 0.527395
-0.27011222 0.21088101 0.38644883 0.26924416 0.1699446 0.105220094 0.097203515 0.20319666
0.10755863 0.31977203 0.4542865 0.08434033 0.06386373 0.2756853 -0.3154973 0.04574619
0.08034993 0.18034978 0.14529023 0.25528595 0.24312967 -0.027641652 0.18663928 0.022844302
0.18555889 0.34678394 0.13256174 0.03644068 0.3116802 0.19699712 0.22823869 0.188388
-0.1574865 0.20942976 0.15138471 -0.0013886666 -0.039823316 0.083746895 0.24847797 -0.066756375
0.26324537 0.3354435 0.43749842 0.12383205 0.30368364 0.30028683 -0.36134225 0.08444437
0.31658533 0.07533078 0.18291976 0.08484623 0.13118488 0.24577162 0.031593595 0.07454756
-0.04003238 0.23369874 0.0444642 0.2009854 0.16974929 0.21554618 0.06498293 0.31107876
-0.49647877 -0.015221022 0.054717295 0.33059287 -0.046568662 -0.0028985005 0.24694735 0.11252952
0.38668105 0.35756713 0.7502455 0.30140606 0.19149972 0.30554673 -0.3539936 0.24859355
0.22009736 0.044533353 0.30139494 0.09799253 0.041382514 0.015720977 -0.06042126 0.07931305
0.11106343 0.47835973 0.038764935 0.16918951 0.5254593 0.13767299 0.14803953 0.5142674
-0.117045656 -0.07593208 -0.16606356 0.11033987 -0.2919195 0.068966284 0.09717611 0.0881295
0.039498486 0.31308615 -0.24178056 0.013889572 -0.10782485 -0.26427972 0.81704646 0.08309082
0.2148581 0.07636977 -0.11735821 -0.36871028 -0.06879773 -0.05157839 0.117807396 -0.078418486
-0.12858607 -0.13562188 -0.08160071 -0.11548735 0.15192045 -0.1780454 -0.14400142 0.17775068
-0.1711692 0.06241116 0.03741341 -0.019228706 0.017929276 -0.015616314 -0.16190661 -0.06120711
-0.0027468686 -0.10213634 0.11459591 -0.12193864 0.061096806 -0.07033429 0.1843023 -0.14583658
0.08019127 -0.14323641 -0.19925512 -0.080891676 -0.017029885 0.12568371 -0.17887065 0.0036470033
-0.13186996 0.0996158 -0.050843354 -0.019988287 -0.005528918 0.13630213 -0.074426584 0.050202202
-0.33855584 0.24551597 0.048214443 0.029479813 0.18740301 0.16267443 0.29452524 0.15454188
0.4019179 0.16946734 0.7330646 0.20172828 0.3193367 0.15685911 -0.42158338 0.06071936
0.19333068 0.18184993 -0.0018235615 0.032418463 0.23306306 0.1530601 0.06763853 -0.043380495
0.1968184 0.43523678 0.085525416 0.1791819 0.38814974 0.052026387 0.0076202406 0.45622054

fc2.bias f4 [16]
00000000: 5ef5 4a3d dd5b 3d3e bd45 5a3e 4383 533e
00000010: d1ab 0dbd 8951 853d 9568 843d 105f 94bc
00000020: 4fd8 bf3d 4f41 f53c b8aa bd3d 3620 073e
00000030: 9906 023e 9c08 09bd 295d b43d 760c 083e
0.049550407 0.18492074 0.21315666 0.20655541 -0.034587685 0.06509692 0.0646526 -0.018111736
0.093674295 0.029938368 0.09261078 0.13195881 0.1269783 -0.033455476 0.088068314 0.13286003

fc3.weight f4 [1, 16]
00000000: 66c1 68bd 3a13 4c3e 3d31 773e ac88 ad3e
00000010: 036b ef3e 9c20 6fbe 72b6 d3bd fd73 9f3e
00000020: 9727 ba3e 522f 2cbe 420e 1bbe 18fe 4a3e
00000030: acab 703e b68a 5cbd 050b b23e 8d33 a53e
-0.056825064 0.1992921 0.24139877 0.33893335 0.4676133 -0.23352283 -0.10337533 0.3114318
0.3635833 -0.16814926 -0.15142158 0.19823492 0.23502988 -0.053843223 0.34774032 0.32265893
